…
create conv6_1              ( 512 x    7 x    7) -> (1024 x    7 x    7)
create relu6_1              (1024 x    7 x    7) -> (1024 x    7 x    7)
create conv6_2              (1024 x    7 x    7) -> (1024 x    7 x    7)
create relu6_2              (1024 x    7 x    7) -> (1024 x    7 x    7)
create conv6_3              (1024 x    7 x    7) -> (1024 x    7 x    7)
create relu6_3              (1024 x    7 x    7) -> (1024 x    7 x    7)
create conv6_4              (1024 x    7 x    7) -> (1539 x    7 x    7)
create pool6                (1539 x    7 x    7) -> (1539 x    1 x    1)

In [9]: net
Out[9]:
CaffeNet(
  (conv1_1): Conv2d(3, 64, kernel_size=(3, 3), stride=(1, 1), padding=(1, 1))
  (relu1_1): ReLU(inplace)
  (pool1): MaxPool2d(kernel_size=2, stride=2, padding=0, dilation=1, ceil_mode=True)
  (conv2_1): Conv2d(64, 128, kernel_size=(3, 3), stride=(1, 1), padding=(1, 1))
  (relu2_1): ReLU(inplace)
  (pool2): MaxPool2d(kernel_size=2, stride=2, padding=0, dilation=1, ceil_mode=True)
  (conv3_1): Conv2d(128, 256, kernel_size=(3, 3), stride=(1, 1), padding=(1, 1))
  (relu3_1): ReLU(inplace)
  (conv3_2): Conv2d(256, 256, kernel_size=(3, 3), stride=(1, 1), padding=(1, 1))
  (relu3_2): ReLU(inplace)
  (pool3): MaxPool2d(kernel_size=2, stride=2, padding=0, dilation=1, ceil_mode=True)
  (conv4_1): Conv2d(256, 512, kernel_size=(3, 3), stride=(1, 1), padding=(1, 1))
  (relu4_1): ReLU(inplace)
  (conv4_2): Conv2d(512, 512, kernel_size=(3, 3), stride=(1, 1), padding=(1, 1))
  (relu4_2): ReLU(inplace)
  (pool4): MaxPool2d(kernel_size=2, stride=2, padding=0, dilation=1, ceil_mode=True)
  (conv5_1): Conv2d(512, 512, kernel_size=(3, 3), stride=(1, 1), padding=(1, 1))
  (relu5_1): ReLU(inplace)
  (conv5_2): Conv2d(512, 512, kernel_size=(3, 3), stride=(1, 1), padding=(1, 1))
  (relu5_2): ReLU(inplace)
  (pool5): MaxPool2d(kernel_size=2, stride=2, padding=0, dilation=1, ceil_mode=True)
  (conv6_1): Conv2d(512, 1024, kernel_size=(3, 3), stride=(1, 1), padding=(1, 1))
  (relu6_1): ReLU(inplace)
  (conv6_2): Conv2d(1024, 1024, kernel_size=(3, 3), stride=(1, 1), padding=(1, 1))
  (relu6_2): ReLU(inplace)
  (conv6_3): Conv2d(1024, 1024, kernel_size=(3, 3), stride=(1, 1), padding=(1, 1))
  (relu6_3): ReLU(inplace)
  (conv6_4): Conv2d(1024, 1539, kernel_size=(3, 3), stride=(1, 1), padding=(1, 1))
  (pool6): AvgPool2d(kernel_size=7, stride=1, padding=0)
)